…
\n","    def forward(self,t):\n","\n","        return t"],"execution_count":0,"outputs":[]},{"cell_type":"code","metadata":{"id":"Lz7j8h9IWoPu","colab_type":"code","colab":{"base_uri":"https://localhost:8080/","height":136},"outputId":"9fcc1915-0fab-4c6d-fa5f-9eeba38a3002","executionInfo":{"status":"ok","timestamp":1584436375851,"user_tz":-330,"elapsed":11768,"user":{"displayName":"Neelabh Jatin","photoUrl":"","userId":"06896838405097795427"}}},"source":["network=Network()\n","network"],"execution_count":26,"outputs":[{"output_type":"execute_result","data":{"text/plain":["Network(\n","  (conv1): Conv2d(1, 6, kernel_size=(5, 5), stride=(1, 1))\n","  (conv2): Conv2d(6, 12, kernel_size=(5, 5), stride=(1, 1))\n","  (fc1): Linear(in_features=192, out_features=120, bias=True)\n","  (fc2): Linear(in_features=120, out_features=60, bias=True)\n","  (out): Linear(in_features=160, out_features=10, bias=True)\n",")"]},"metadata":{"tags":[]},"execution_count":26}]},{"cell_type":"code","metadata":{"id":"OBOAJ0zaWsyq","colab_type":"code","colab":{"base_uri":"https://localhost:8080/","height":136},"outputId":"c01ba9aa-05df-45e6-b0e4-2510eb165e9a","executionInfo":{"status":"ok","timestamp":1584436375852,"user_tz":-330,"elapsed":10308,"user":{"displayName":"Neelabh Jatin","photoUrl":"","userId":"06896838405097795427"}}},"source":["print(network)"],"execution_count":27,"outputs":[{"output_type":"stream","text":["Network(\n","  (conv1): Conv2d(1, 6, kernel_size=(5, 5), stride=(1, 1))\n","  (conv2): Conv2d(6, 12, kernel_size=(5, 5), stride=(1, 1))\n","  (fc1): Linear(in_features=192, out_features=120, bias=True)\n","  (fc2): Linear(in_features=120, out_features=60, bias=True)\n","  (out): Linear(in_features=160, out_features=10, bias=True)\n",")\n"],"name":"stdout"}]},{"cell_type":"code","metadata":{"id":"h4mJQkXgarj7","colab_type":"code","colab":{"base_uri":"https://localhost:8080/","height":34},"outputId":"13b368a6-b4bd-47cd-806e-7871d7d04207","executionInfo":{"status":"ok","timestamp":1584436375852,"user_tz":-330,"elapsed":9073,"user":{"displayName":"Neelabh Jatin","photoUrl":"","userI
…
